…
 range(4)]x = concatenate(x)model = Model(inputs=input_tensor, outputs=x) 我们来看看模型的结构，画出模型结构图，在使用plot_model之前要先pip install pydot-ng &amp; apt install graphviz 123from keras.utils import plot_modelplot_model(model, to_file='model.png')model.summary() 12345678910111213141516171819202122232425262728293031323334353637383940414243444546474849model.summary()___________________________________________________________________________________Layer (type) Output Shape Param # Connected to ================================================================================================input_1 (InputLayer) (None, 80, 160, 1) 0 ________________________________________________________________________________________________conv2d_1 (Conv2D) (None, 78, 158, 32) 320 input_1[0][0] ________________________________________________________________________________________________conv2d_2 (Conv2D) (None, 76, 156, 32) 9248 conv2d_1[0][0] ________________________________________________________________________________________________max_pooling2d_1 (MaxPooling2D) (None, 38, 78, 32) 0 conv2d_2[0][0] ________________________________________________________________________________________________conv2d_3 (Conv2D) (None, 36, 76, 64) 18496 max_pooling2d_1[0][0] ________________________________________________________________________________________________conv2d_4 (Conv2D) (None, 34, 74, 64) 36928 conv2d_3[0][0] ________________________________________________________________________________________________max_pooling2d_2 (MaxPooling2D) (None, 17, 37, 64) 0 conv2d_4[0][0] ________________________________________________________________________________________________conv2d_5 (Conv2D) (None, 15, 35, 128) 73856 max_pooling2d_2[0][0] ________________________________________________________________________________________________conv2d_6 (Conv2D) (None, 13, 33, 128) 147584 conv2d_5[0][0] _______________________________________________________________________________________________max_pooling2d_3 (MaxPooling2D) (None, 6, 16, 128) 0 conv2d_6[0][0] ________________________________________________________________________________________________conv2d_7 (Conv2D) (None, 4, 14, 256) 295168 max_pooling2d_3[0][0] ________________________________________________________________________________________________conv2d_8 (Conv2D) (None, 2, 12, 256) 590080 conv2d_7[0][0] ________________________________________________________________________________________________max_pooling2d_4 (MaxPooling2D) (None, 1, 6, 256) 0 conv2d_8[0][0] ________________________________________________________________________________________________flatten_1 (Flatten) (None, 1536) 0 max_pooling2d_4[0][0] ________________________________________________________________________________________________dropout_1 (Dropout) (None, 1536) 0 flatten_1[0][0] ________________________________________________________________________________________________c1 (Dense) (None, 36) 55332 dropout_1[0][0] ________________________________________________________________________________________________c2 (Dense) (None, 36) 55332 dropout_1[0][0] ________________________________________________________________________________________________c3 (Dense) (None, 36) 55332 dropout_1[0][0] ________________________________________________________________________________________________c4 (Dense) (None, 36) 55332 dropout_1[0][0] ________________________________________________________________________________________________concatenate_1 (Concatenate) (None, 144) 0 c1[0][0] c2[0][0] c3[0][0] c4[0][0] ================================================================================================Total params: 1,393,008Trainable params: 1,393,008Non-trainable params: 0_______________________________________________________________________________________________ 定义loss和acc这里的loss不能用系统自带的几个loss和acc，因为我们这里是分4个字符的验证码，不是一个分对了就是对，而是四个都对了才是对 12345678910111213141516
…
